qg_gnn_model.pt (torch, 105780 bytes, 56 tensors)

edge_nn1.0.weight f4 [64, 8]
000000 f6 b8 02 3e fd 5a 34 3c 0f 1e 8e 3c 97 5a 34 bd
       0.1276587 0.011008021 0.017348317 -0.044031706
000010 02 82 84 3d 4e b5 f2 bb c0 c8 b8 3a a2 3f a3 be
       0.064701095 -0.007406867 0.0014097914 -0.31884485
000020 9f b3 f9 bd bd 9f 83 3c d6 d6 a6 bc 1d ca 84 3c
       -0.12192463 0.01606738 -0.020366114 0.016209656
000030 cd 08 bc bd c1 34 27 3b 8c 7a 19 3b b0 76 38 be
       -0.09181366 0.0025513622 0.002341899 -0.18014026
000040 c2 2c 4a 80 e6 a4 02 80 07 00 33 00 c9 41 2d 80
       -6.811883e-39 -2.42825e-40 4.68362e-39 -4.156197e-39
000050 d1 53 0c 80 b0 9d 27 80 62 0f 41 02 bc 25 45 00
       -1.132094e-39 -3.638152e-39 1.4183815e-37 6.350186e-39
000060 fc 41 09 00 4c e7 4c 81 11 c3 1c 80 e8 10 07 80
       8.5019e-40 -3.763483e-38 -2.64137e-39 -6.48913e-40
000070 df ed 11 00 78 88 26 00 d0 c9 67 81 7c b0 2d 80
       1.646536e-39 3.538705e-39 -4.2572793e-38 -4.195908e-39
000080 35 6b 13 00 20 df 60 01 16 34 0a 82 d1 3e 14 80
       1.783333e-39 4.1302387e-38 -1.0153587e-37 -1.859244e-39
000090 12 7f 03 00 d8 4c 02 00 8c 02 0a 81 6f 7c 10 00
       3.21091e-40 2.11237e-40 -2.5348424e-38 1.514006e-39
0000a0 e0 11 23 80 02 8b 16 02 14 04 48 80 4f 68 20 00
       -3.220655e-39 1.1060153e-37 -6.613619e-39 2.976155e-39
0000b0 00 f4 0c 00 c0 1f ec 01 84 39 bb 81 9f 48 18 80
       1.189557e-39 8.673827e-38 -6.877548e-38 -2.230103e-39
0000c0 39 93 51 bc 73 8e b7 bc 67 70 a6 bc 12 a1 01 3e
       -0.012791448 -0.022406792 -0.02031727 0.126591
0000d0 a1 f2 a3 bc 6f ff 37 bb af bd 4a bc 15 0d 3e 3e
       -0.020013155 -0.0028075834 -0.012374326 0.18559678
0000e0 f9 02 73 bc 19 68 8f bc 4d 86 23 bd b2 84 28 3e
       -0.014832252 -0.017505692 -0.039923 0.16456869
0000f0 03 0c 4c be 23 8f ef 3b 07 73 a3 bb 76 b1 ab 3c
       -0.19926457 0.0073107644 -0.0049880776 0.020958643
000100 59 eb 12 be 2a e7 3f bc 7d 38 58 3d 42 18 4b be
       -0.1434759 -0.011712829 0.052788246 -0.19833472
000110 34 e4 98 3d b9 92 7a 3a bb e3 c0 bb 08 53 5a be
       0.07465401 0.00095586065 -0.0058865226 -0.21320736
000120 2a 10 a7 be ed 12 94 ba d9 1d 84 bc 34 73 3d be
       -0.3262952 -0.0011297144 -0.016127514 -0.18500978
000130 4a 68 16 be 13 57 d8 bb f6 86 21 3b d3 af 40 be
       -0.1468822 -0.006602177 0.0024647093 -0.18817072
000140 c0 ec 86 3c 93 9a a7 bc dc 3b 93 3a 5f 72 58 3d
       0.016470313 -0.020459449 0.001123305 0.052843448
000150 3e 85 5d 3d 34 9d f9 ba 00 42 df bb 2b 98 48 be
       0.054082148 -0.0019044043 -0.0068132877 -0.19589297
000160 55 73 54 3d 16 04 cc bc 17 65 a9 bc f9 06 1a 3e
       0.0518678 -0.024904292 -0.020678086 0.15041722
000170 66 97 81 3d 4d 47 dc 3a c6 72 b1 ba 11 18 10 3e
       0.06327705 0.0016805917 -0.0013538233 0.1407168
000180 8f 33 16 80 c1 49 35 80 30 27 05 80 19 38 3c 00
       -2.038877e-39 -4.893739e-39 -4.73235e-40 5.530254e-39
000190 a7 3c 1f 00 e7 e3 16 80 03 97 0e 80 1d df 18 80
       2.868658e-39 -2.102137e-39 -1.33987e-39 -2.28409e-39
0001a0 df d1 98 bd 5c 21 18 3c c4 d6 a0 b9 d2 8e 7c bc
       -0.07461905 0.009285297 -0.0003067759 -0.01541491
0001b0 97 c2 a6 bd 32 94 d3 bb eb 4e b8 3b 34 d1 41 be
       -0.08142584 -0.0064568752 0.005624642 -0.18927461
0001c0 f4 b9 a2 3d 19 d1 46 3b 82 39 7b ba b2 96 8d 3c
       0.07945624 0.0030337034 -0.00095834595 0.017283771
0001d0 51 51 8c 3c 4d 86 13 bb 52 4c 44 3b c7 a1 00 be
       0.017128618 -0.002251047 0.0029952717 -0.12561713
0001e0 b6 ac b3 3d 18 6f 91 bc 9b 19 c9 bb cd 5f 88 3d
       0.08773176 -0.017753169 -0.0061370856 0.066588975
0001f0 48 5b ad 3d 11 2b cd bb 80 2d 61 bc 45 6e 66 be
       0.08464676 -0.0062612374 -0.013743758 -0.22503002
000200 73 14 03 80 a2 97 42 80 ad 68 1f 00 8a 78 23 80
       -2.82842e-40 -6.115538e-39 2.884451e-39 -3.257484e-39
000210 b5 51 43 80 a0 8c 12 80 12 7c 89 81 08 07 0a 80
       -6.182289e-39 -1.703486e-39 -5.0503884e-38 -9.20877e-40
000220 70 c5 19 80 ae a8 36 00 52 4c 04 80 42 9d 4e 00
       -2.366715e-39 5.019628e-39 -3.9472e-40 7.219582e-39
000230 00 dc 28 80 9b c8 03 00 a1 e4 1b 00 31 f7 13 80
       -3.752341e-39 3.4747e-40 2.561575e-39 -1.83355e-39
000240 74 d0 0f 80 5a ab 03 80 b9 b7 05 80 93 31 0f 80
       -1.452311e-39 -3.36976e-40 -5.25085e-40 -1.395316e-39
000250 f9 27 39 80 91 77 0a 00 5b 32 15 80 1f 2a 3c 80
       -5.248963e-39 9.61247e-40 -1.94661e-39 -5.52524e-39
000260 26 7f 3a 80 62 22 22 80 03 42 06 00 6d 29 6a 00
       -5.372071e-39 -3.134741e-39 5.74694e-40 9.749423e-39
000270 49 ca 79 00 18 1b 14 80 0a 64 74 00 8f bb 8d 80
       1.1184661e-38 -1.84643e-39 1.0688805e-38 -1.3016088e-38
000280 6f 77 27 b7 55 af bc b6 a8 43 b1 36 01 50 e0 ba
       -9.9817835e-06 -5.623248e-06 5.2828873e-06 -0.0017113687
000290 53 77 de b7 5c 73 46 b5 28 0f f4 b5 80 8d 0f 3a
       -2.6520027e-05 -7.392862e-07 -1.8183828e-06 0.0005476102
0002a0 9e 6c 41 3e 7f fc ca 3b 41 14 08 bc c0 e9 72 3e
       0.1888909 0.0061946507 -0.00830561 0.23721981
0002b0 75 63 b1 3d c2 73 93 3b b7 36 05 3b 51 02 83 3e
       0.08661548 0.0044998834 0.0020326802 0.25587705
0002c0 0a bb 14 bc a8 ea 67 bc a2 ff 65 bb 4f 07 b2 3d
       -0.009077797 -0.0141550675 -0.0035094996 0.086928
0002d0 25 a2 62 3d ad a6 67 ba ef cd ef ba f0 78 58 bd
       0.055330414 -0.00088367873 -0.0018295626 -0.05284971
0002e0 5d 58 33 00 0f e1 45 00 c7 b4 98 00 5c ad b9 0c
       4.715309e-39 6.417385e-39 1.4023846e-38 2.86081e-31
0002f0 99 5a 1b 00 ee b1 50 00 70 ab 1d 80 3f 0c 31 27
       2.512059e-39 7.410669e-39 -2.72473e-39 2.4570323e-15
000300 41 9d 4b 3b 78 43 9e 3c c5 ea c4 3a 30 a3 cd 3d
       0.0031069072 0.019319281 0.001502358 0.10040891
000310 bf fe c1 3c c5 6a 0e 3c 49 3c 2d bc 5a c4 a1 3e
       0.023681043 0.008692448 -0.010573455 0.31595117
000320 5b 9e 29 00 de 6e 23 00 b7 10 07 80 1d 21 3a 80
       3.822063e-39 3.254014e-39 -6.48845e-40 -5.338338e-39
000330 35 f8 08 00 5c a5 1c 01 ce 65 22 82 12 59 40 00
       8.23724e-40 2.8771314e-38 -1.1931097e-37 5.909424e-39
000340 5c 59 ad 3c 71 75 6a bc c8 70 65 3c d4 db 15 bd
       0.021160774 -0.014310227 0.01400394 -0.036586598
000350 c4 25 94 3d dc 18 f8 ba 24 8e 55 b9 ef 08 3f be
       0.07233766 -0.0018928307 -0.00020366214 -0.18655752
000360 a9 3c 4d 00 e0 e9 cc 01 fa 25 8d 01 db ef 53 80
       7.093094e-39 7.527336e-38 5.1849714e-38 -7.70839e-39
000370 c6 07 09 80 38 ef 93 80 e0 69 27 80 03 b5 7a 00
       -8.29308e-40 -1.3585633e-38 -3.619565e-39 1.1268865e-38
000380 f4 35 19 00 a2 3e de 01 44 ac 2d 00 75 d4 28 00
       2.315242e-39 8.1639794e-38 4.194395e-39 3.749635e-39
000390 08 92 02 00 a9 09 0e 02 55 10 17 02 8b e4 1f 00
       2.36057e-40 1.0435285e-37 1.1098415e-37 2.928886e-39
0003a0 2c c6 bb 3d 39 db 4e bc 1c 85 69 3c 5b be 83 be
       0.09168658 -0.012625509 0.014252927 -0.25731167
0003b0 87 bc 5a be b3 cc 99 3b 88 56 7c bb 04 c3 35 39
       -0.2136098 0.0046935915 -0.0038503725 0.00017334154
0003c0 b2 b2 67 bd 73 59 8c 3b d2 26 7b bc f5 b3 d0 3d
       -0.0565669 0.004283124 -0.01532908 0.10190574
0003d0 2b 2f 2a bd d8 88 a1 3c f4 34 1c bb b5 20 a8 3e
       -0.04154889 0.019718572 -0.0023835273 0.32837453
0003e0 4c e7 61 22 f0 ec 7d a2 9c c7 8e 22 d9 7e 15 b9
       3.0615634e-18 -3.4413327e-18 3.870052e-18 -0.00014257002
0003f0 32 c1 d4 25 b0 91 10 a1 b0 ca 34 a1 ca 51 30 37
       3.6907052e-16 -4.8981914e-19 -6.1254627e-19 1.05094605e-05

edge_nn1.0.bias f4 [64]
000000 27 eb 41 b8 70 55 ef 36 6a 36 3c 02 4a 94 8d 01
       -4.623379e-05 7.1327013e-06 1.3827675e-37 5.2008004e-38
000010 1e 8d b8 01 d8 cb b2 00 12 5e 1c 37 7b 36 09 39
       6.779342e-38 1.6419844e-38 9.320227e-06 0.00013085634
000020 8a ed 9f b7 9d b2 24 ba 05 63 97 39 ac 7e 72 b7
       -1.906489e-05 -0.0006282719 0.0002887474 -1.4453817e-05
000030 87 43 0c 82 d4 5f 91 38 1b 9e 98 37 a0 c0 6d 39
       -1.0304955e-37 6.931988e-05 1.8193436e-05 0.0002267384
000040 65 17 3c 82 6c 06 5a 81 1a 9b e7 81 c8 f4 49 81
       -1.3818773e-37 -4.0044884e-38 -8.507856e-38 -3.709349e-38
000050 7c 88 b2 ac 96 de a3 37 ac 51 13 b7 94 78 51 01
       -5.074217e-12 1.9534764e-05 -8.7808985e-06 3.8473748e-38
000060 dc 8a 9a 37 4e e5 8e 01 8e 30 28 b6 b5 2a 8d 02
       1.8422892e-05 5.24916e-38 -2.5062213e-06 2.07426e-37
000070 be 73 99 01 16 47 85 b8 bc 2c f8 38 df 00 ba 18
       5.6369406e-38 -6.355175e-05 0.00011833894 4.8080753e-24
000080 b9 32 b5 36 ec 4f df b8 a0 98 4c 32 26 e4 10 39
       5.4001252e-06 -0.00010648355 1.1909066e-08 0.00013817902
000090 75 1c 95 39 c0 a0 47 b5 a5 04 8a 2d fa a1 d2 81
       0.00028440697 -7.43672e-07 1.5690846e-11 -7.737424e-38
0000a0 e8 1c 9b 36 3e 80 fd 81 56 c6 20 b8 a4 24 13 b8
       4.622725e-06 -9.312154e-38 -3.8331687e-05 -3.5081655e-05
0000b0 f3 7d 40 82 01 1e bb 38 d4 a9 57 36 32 4c ef 81
       -1.4142078e-37 8.9224435e-05 3.213635e-06 -8.790407e-38
0000c0 dd b7 6f 82 88 da e6 37 21 d0 60 38 65 91 7c 39
       -1.7611713e-37 2.7519898e-05 5.3599597e-05 0.00024086756
0000d0 78 db c5 b8 53 b0 3b 02 d4 1a 14 b6 10 b1 33 81
       -9.434571e-05 1.3789193e-37 -2.2069335e-06 -3.3004144e-38
0000e0 be b3 0c b9 28 4f bf 33 5b 49 20 82 80 af 65 82
       -0.000134184 8.908529e-08 -1.1775995e-37 -1.6874629e-37
0000f0 7e cc a2 81 92 6c 17 b3 f2 fb ed 01 6e 7b 1c 3a
       -5.9802833e-38 -3.525617e-08 8.7421574e-38 0.000596932

edge_nn1.1.weight f4 [64]
000000 f2 8b 20 3f c5 39 e8 3e f2 84 16 80 17 97 1a 80
       0.6271354 0.45356575 -2.068073e-39 -2.441924e-39
000010 e5 2a 12 80 64 c5 11 00 d9 e4 0e 3e b3 64 a6 3e
       -1.668427e-39 1.632014e-39 0.13954486 0.32498702
000020 68 29 c7 3e bd 2a c2 3e fb c7 a6 3e cb 90 3e 3e
       0.38898778 0.37923232 0.32574448 0.18609922
000030 9c 0d 06 00 5c 93 8a 3e fe bf 6e 3e c0 e4 fc 3e
       5.55895e-40 0.2706555 0.23315427 0.49393272
000040 99 e0 0d 80 b4 c8 35 00 82 30 81 80 48 8c 1c 80
       -1.274432e-39 4.93928e-39 -1.186418e-38 -2.621717e-39
000050 68 9a 6d 3b b7 0f f3 3e ce 90 62 3d af 70 38 2e
       0.0036255363 0.47472927 0.055313878 4.193684e-11
000060 08 b4 1d 3f 8c 80 0d 80 af f8 8f 3e 6f d2 29 80
       0.6160283 -1.239975e-39 0.28119418 -3.840745e-39
000070 d9 67 19 80 f2 ff d1 3e 8b 02 22 3f 67 e8 13 b9
       -2.333141e-39 0.41015583 0.6328513 -0.00014105589
000080 f9 6d 81 3e ec ec 34 3f f5 3a a1 3d 5f ef ad 3e
       0.25279215 0.70674014 0.07872573 0.33971688
000090 95 4b 1e 3f 3f c5 da 3e f9 4b b2 3b c0 d9 09 80
       0.6183408 0.42728612 0.0054411856 -9.04633e-40
0000a0 7e c1 09 3f 93 ee 23 00 12 44 2b 3e 9a ab a4 3e
       0.5381087 3.299827e-39 0.16725186 0.32162172
0000b0 5d e5 17 80 76 44 a0 3e 62 de bf 3e 40 65 24 80
       -2.194496e-39 0.31302232 0.37474352 -3.3424e-39
0000c0 fa 3b 23 00 af e2 f2 3e 53 78 32 3f ad 5e d7 3e
       3.235758e-39 0.4743857 0.6971485 0.4206442
0000d0 37 25 b8 3e f5 8b 56 00 93 d6 cb 3e cb f7 1e 00
       0.35965893 7.94806e-39 0.39812145 2.843956e-39
0000e0 cb 68 ef 3e 8a 12 81 3a 38 34 58 00 61 02 06 80
       0.46759638 0.0009847444 8.100256e-39 -5.51866e-40
0000f0 71 8a 97 33 cc a2 e6 3d 66 e9 16 00 42 f7 82 3f
       7.056668e-08 0.1126152 2.104108e-39 1.0231707

edge_nn1.1.bias f4 [64]
000000 8f 59 a6 bd 0d cf 55 bb 94 fe 02 80 e1 4e 22 80
       -0.08122551 -0.0032624633 -2.74996e-40 -3.150703e-39
000010 2d 1c 2b 80 47 00 43 80 86 7a 5e 3c 04 bc 88 3b
       -3.959034e-39 -6.153078e-39 0.013579017 0.004172804
000020 57 b7 51 bc 77 bb 7f 3d 07 9d 4f 3b 4c 29 73 bd
       -0.012800059 0.06243464 0.003167929 -0.059365556
000030 67 a9 12 80 0d 48 91 3d f9 f5 f1 bc 40 65 d3 3a
       -1.713809e-39 0.07093821 -0.029536234 0.0016128197
000040 52 7e 35 80 e4 e1 31 80 7f f4 44 80 1b 22 33 80
       -4.912596e-39 -4.580974e-39 -6.332522e-39 -4.695845e-39
000050 fa 00 90 bc 9f 2d 8d bd cf d9 bf b9 b7 15 f4 b0
       -0.01757859 -0.06893467 -0.0003659264 -1.7759508e-09
000060 f8 63 f6 bd de cf 02 80 a9 69 84 bd 08 8b 57 80
       -0.12030786 -2.5824e-40 -0.064654656 -8.039563e-39
000070 2e 06 60 80 e6 e4 79 bd 60 1e 4c 3d 8f ef 4d ba
       -8.818424e-39 -0.06100931 0.049833655 -0.00078558264
000080 2e ec 6e bd 28 05 28 bc 38 39 f2 bb 02 fd 94 3d
       -0.058330707 -0.010255136 -0.007392075 0.0727482
000090 f1 b5 8a 3d a8 8a 01 3d 55 cb b0 bc 37 01 0b 80
       0.06772984 0.031626374 -0.021581331 -1.010626e-39
0000a0 9b e4 0f be 1f 80 38 80 8b c1 85 3c 70 c4 b1 bd
       -0.1405205 -5.188749e-39 0.01632764 -0.086800456
0000b0 c8 96 03 80 67 5c 9b 3d 91 db 5a bd d3 36 30 80
       -3.29597e-40 0.07585984 -0.05343205 -4.427771e-39
0000c0 1a 16 25 80 2d 45 dd bd 9d 0a f8 3d 80 18 6e 3d
       -3.405842e-39 -0.1080421 0.12111399 0.058128834
0000d0 73 0b 85 bb 86 3c 0b 80 d6 08 de bc 04 3c 2f 80
       -0.0040602027 -1.031902e-39 -0.027103823 -4.337798e-39
0000e0 ed 9b 33 3d b6 3b 94 3c aa a9 5c 80 92 d9 21 80
       0.043849874 0.018094879 -8.50973e-39 -3.108621e-39
0000f0 b6 05 8c ae 47 91 4e bd 3b c3 12 80 87 c7 0d 3d
       -6.3674774e-11 -0.050431516 -1.723074e-39 0.034614112

edge_nn1.1.running_mean f4 [64]
000000 1a 7d 38 3f ec 50 87 bf cb eb 11 82 bc 7c 00 81
       0.7206589 -1.057157 -1.0720587e-37 -2.359938e-38
000010 8c 1e 82 80 46 53 1d 00 80 92 d3 3f f0 61 08 40
       -1.1949573e-38 2.693102e-39 1.6529083 2.1309776
000020 c8 94 86 c0 04 57 c2 c0 20 68 71 3f 82 7b 2b 40
       -4.205662 -6.073122 0.9429951 2.6794133
000030 e6 b8 9c 01 ae cd 7c bf d4 96 87 3f 3b 4b ed 3f
       5.7570666e-38 -0.9875134 1.0592904 1.8538584
000040 c0 38 cc 80 69 04 da 01 9e cd 83 81 b8 2f 01 02
       -1.8754799e-38 8.008688e-38 -4.8416846e-38 9.491118e-38
000050 c3 b2 ce bc ed 81 ab 40 30 9a 94 3f b4 84 87 1c
       -0.025231725 5.35961 1.1609554 8.967854e-22
000060 82 08 c1 3f 33 ca 8d 81 f0 a2 88 be c7 21 19 00
       1.5080721 -5.208536e-38 -0.2668681 2.308004e-39
000070 23 e7 0d 02 d1 de 30 c0 e4 3f 5b 3f 59 02 0d bb
       1.0425377e-37 -2.7635996 0.85644364 -0.0021516292
000080 ac 2f df 3e 5d 7d 82 bf b6 d5 f5 3e 00 ba 16 3f
       0.43591058 -1.0194508 0.4801461 0.58877563
000090 43 6f e4 c0 1c c9 01 41 ab 2d 4b 3e 1e 10 2a 02
       -7.1385818 8.111599 0.1984164 1.2494253e-37
0000a0 e9 b3 9a 40 c7 2c 2d 02 72 16 3d 3f c6 e0 2d c0
       4.8344617 1.2722883e-37 0.73862374 -2.716844
0000b0 8f 27 67 01 7c 48 6b bf c2 21 91 40 b7 7b 97 01
       4.245638e-38 -0.9190748 4.535371 5.564616e-38
0000c0 35 c9 02 82 d4 43 64 3f bd b7 c7 3f 6a 89 44 bf
       -9.608635e-38 0.89166 1.5602947 -0.7677218
0000d0 59 1f 10 40 c4 e2 0d 02 9e 78 72 40 22 20 3c 80
       2.2519133 1.0424123e-37 3.788612 -5.521657e-39
0000e0 b4 64 5c 3f 6b 4d e2 3d 1a b0 48 01 0e 82 d4 01
       0.8609116 0.110499226 3.6860545e-38 7.806312e-38
0000f0 37 d3 96 2d 6e 39 f4 3e 0f e8 33 80 28 a6 bb c1
       1.7146824e-11 0.47700065 -4.766857e-39 -23.456131

edge_nn1.1.running_var f4 [64]
000000 06 d1 55 47 84 15 af 46 04 00 00 00 04 00 00 00
       54737.023 22410.758 6e-45 6e-45
000010 04 00 00 00 04 00 00 00 bd 00 36 46 08 94 cd 45
       6e-45 6e-45 11648.185 6578.504
000020 cf 98 5a 46 7e 96 2a 46 a0 a8 f0 46 e9 1e ba 45
       13990.202 10917.623 30804.312 5955.864
000030 04 00 00 00 d1 c2 a0 46 60 fe 2d 46 0c 9a 23 47
       6e-45 20577.408 11135.594 41882.047
000040 04 00 00 00 04 00 00 00 04 00 00 00 04 00 00 00
       6e-45 6e-45 6e-45 6e-45
000050 0e 2c e2 3f 04 1f 9d 46 6b 86 d6 45 17 14 da 18
       1.7669694 20111.508 6864.8022 5.6371965e-24
000060 ff be 30 47 04 00 00 00 1e ab 8a 46 04 00 00 00
       45246.996 6e-45 17749.559 6e-45
000070 04 00 00 00 82 2c a0 46 72 e4 40 47 3b 19 01 3c
       6e-45 20502.254 49380.445 0.007879551
000080 06 08 83 46 36 51 9b 47 bb 47 64 45 2c 12 66 46
       16772.012 79522.42 3652.4832 14724.543
000090 3e dc 1b 46 5c 2b 00 45 2d 21 cc 44 04 00 00 00
       9975.061 2050.71 1633.0367 6e-45
0000a0 5b 0b 9f 46 04 00 00 00 37 25 f9 45 38 3c 31 46
       20357.678 6e-45 7972.652 11343.055
0000b0 04 00 00 00 c2 08 b6 46 11 46 bd 45 04 00 00 00
       6e-45 23300.379 6056.7583 6e-45
0000c0 04 00 00 00 c5 4f 0c 47 5c 95 02 45 41 fc b4 44
       6e-45 35919.77 2089.335 1447.8829
0000d0 dc 93 78 46 04 00 00 00 b8 61 82 45 04 00 00 00
       15908.965 6e-45 4172.215 6e-45
0000e0 60 66 19 47 93 3c 50 43 04 00 00 00 04 00 00 00
       39270.375 208.23662 6e-45 6e-45
0000f0 42 5c 03 21 d8 b8 91 45 04 00 00 00 6e 18 35 45
       4.450663e-19 4663.1055 6e-45 2897.5269

edge_nn1.3.weight f4 [64, 64]
000000 81 f8 ed bd 0c 1b 87 bd 2e 96 19 80 fd c3 31 00
       -0.11619664 -0.06596956 -2.349762e-39 4.570247e-39
000010 9b 49 36 00 e9 b6 0b 80 dd 25 a5 bc 01 de ad bd
       4.985521e-39 -1.075806e-39 -0.020159656 -0.084896095
000020 4f fe ce bd 73 56 0c be cc 17 c6 bd 32 de 24 3c
       -0.10107099 -0.13704853 -0.09672508 0.010062741
000030 23 f6 35 80 eb 96 da bc 4b dd 36 bd 65 20 d8 bd
       -4.955579e-39 -0.026683291 -0.044644635 -0.10553054
000040 56 ee 29 00 43 11 2d 80 c8 1d 6b 80 20 a7 26 00
       3.850754e-39 -4.13879e-39 -9.837082e-39 3.549702e-39
000050 5b 06 31 b8 b7 44 f3 bd 26 de 20 bd 78 75 2b 80
       -4.2206007e-05 -0.11878341 -0.039274357 -3.991066e-39
000060 6b 9e 85 3d 19 19 04 00 ae cb bf bd 39 d6 75 80
       0.065243565 3.76345e-40 -0.09365021 -1.0821602e-38
000070 cc f1 33 80 23 c9 c7 bd 97 3b b6 bd c3 af e9 26
       -4.77035e-39 -0.09755161 -0.088980846 1.6215263e-15
000080 3a 9c c1 3c f9 67 f4 bd 4d 95 5e bb 2c 9a aa bd
       0.023634065 -0.11933894 -0.0033963502 -0.08330187
000090 5a 33 81 3c 94 c6 20 3e e5 93 4f bc 7a 38 82 80
       0.015771557 0.15700752 -0.012669538 -1.1958874e-38
0000a0 52 6d 3f bd 47 aa 28 00 b6 77 0b bd 08 a0 9d bd
       -0.046735115 3.734504e-39 -0.034049712 -0.07696539
0000b0 1f 3c 70 00 c9 fd 38 bd b3 12 51 bc e9 4e 4b 80
       1.0307143e-38 -0.045163903 -0.012760806 -6.91597e-39
0000c0 c9 bd 30 80 22 9c 27 3d 77 cd 10 be 03 44 0b be
       -4.476186e-39 0.040920384 -0.14140879 -0.13600163
0000d0 f0 d2 9d bd ac 01 37 80 e4 aa 6a 3b 09 d8 0e 00
       -0.07706249 -5.051552e-39 0.0035807425 1.363196e-39
0000e0 a5 66 ed bc fd 9c 54 39 36 1e 10 00 95 9f 05 80
       -0.028979609 0.00020276378 1.480206e-39 -5.16425e-40
0000f0 77 8a 8d 00 91 12 52 3c c6 2e 46 00 b7 31 97 be
       1.2998477e-38 0.012821809 6.445264e-39 -0.29530117
000100 f1 fc 10 80 b8 72 23 00 3a 30 0f 00 f4 60 40 00
       -1.560106e-39 3.255396e-39 1.394833e-39 5.912252e-39
000110 c7 44 2f 00 fe 0e 2b 80 ca 9b 11 80 f7 31 06 00
       4.340941e-39 -3.954305e-39 -1.61709e-39 5.68937e-40
000120 4d 05 17 80 63 c0 16 80 3e c7 1a 00 fd 99 06 80
       -2.114118e-39 -2.089396e-39 2.459198e-39 -6.06254e-40
000130 f9 28 1a 80 82 eb 01 80 0e 97 0f 80 1b 3b 0a 80
       -2.402421e-39 -1.7632e-40 -1.43172e-39 -9.39558e-40
000140 37 34 3d 00 aa ba 29 00 78 1d 09 80 7e 34 16 00
       5.620696e-39 3.832218e-39 -8.37091e-40 2.039212e-39
000150 13 a4 13 80 08 2b 15 80 53 00 1f 00 a4 d3 11 80
       -1.803733e-39 -1.943982e-39 2.847017e-39 -1.637126e-39
000160 dc d5 12 80 53 c8 08 00 bf ca 03 80 a3 fb 0e 00
       -1.729757e-39 8.06547e-40 -3.48238e-40 1.375967e-39
000170 f2 87 49 00 06 dc 1e 00 4e e8 0e 80 32 8f 04 00
       6.752759e-39 2.833994e-39 -1.369032e-39 4.18711e-40
000180 33 39 0d 80 95 ee 10 80 2d 99 16 00 52 a1 10 80
       -1.21438e-39 -1.554955e-39 2.07533e-39 -1.527239e-39
000190 de 10 1b 80 43 9e 17 80 1e 68 1a 00 c1 f7 43 00
       -2.485609e-39 -2.16899e-39 2.425073e-39 6.241856e-39
0001a0 9e 08 17 80 68 ca 16 00 ab 1d 00 80 87 ed 1f 80
       -2.115308e-39 2.09299e-39 -1.0643e-41 -2.932109e-39
0001b0 6e 31 2c 80 34 d5 04 80 86 0d 13 00 94 a1 14 00
       -4.058494e-39 -4.43825e-40 1.749726e-39 1.894673e-39
0001c0 ec 3e 08 00 34 a2 11 80 8f 8d 3d 80 5f 67 0d 80
       7.57256e-40 -1.619391e-39 -5.652747e-39 -1.230944e-39
0001d0 b6 25 0b 80 6d 3f 12 00 49 92 1a 80 f5 8f 15 00
       -1.023719e-39 1.675792e-39 -2.4402e-39 1.980187e-39
0001e0 09 9a 07 80 22 9d 14 00 60 91 28 00 e8 53 0e 00
       -6.98106e-40 1.893079e-39 3.72557e-39 1.315797e-39
0001f0 f3 ec 05 80 dd c2 05 80 71 95 0e 80 8f 19 1a 80
       -5.44179e-40 -5.29081e-40 -1.339306e-39 -2.396892e-39
000200 8f db 25 80 07 77 28 00 69 80 18 00 43 1d 2e 80
       -3.476676e-39 3.716119e-39 2.250117e-39 -4.23493e-39
000210 e1 3e 1c 80 ba c1 2a 80 dc ad 15 00 b1 81 40 00
       -2.59395e-39 -3.926587e-39 1.990914e-39 5.923996e-39
000220 c5 88 1d 80 ed fd 29 80 94 06 21 80 d0 74 14 80
       -2.712293e-39 -3.856347e-39 -3.032931e-39 -1.878614e-39
000230 aa 0c 25 80 84 07 27 00 55 d0 42 80 28 bc 48 00
       -3.402456e-39 3.58428e-39 -6.135878e-39 6.679653e-39
000240 e0 d0 1f 80 d3 fd 01 00 96 45 2d 80 f1 e1 20 80
       -2.92183e-39 1.8289e-40 -4.15756e-39 -3.019788e-39
000250 c9 d5 35 80 83 b1 03 00 9a ea 37 00 a6 c5 10 80
       -4.943973e-39 3.39186e-40 5.135111e-39 -1.540271e-39
000260 4a 7a 3b 80 51 19 14 00 a7 d9 0a 80 93 21 38 00
       -5.462163e-39 1.845792e-39 -9.96434e-40 5.154832e-39
000270 d2 35 1f 80 ef 39 1a 80 a7 d0 2c 80 4f a9 0e 80
       -2.866207e-39 -2.408506e-39 -4.115612e-39 -1.346433e-39
000280 8e 67 03 00 b6 ef 16 00 71 90 1d 80 da 9a 07 80
       3.12655e-40 2.106373e-39 -2.715045e-39 -6.98399e-40
000290 5e e0 44 80 cd 06 0b 00 ad 97 22 80 f8 18 46 80
       -6.325302e-39 1.01263e-39 -3.176818e-39 -6.437442e-39
0002a0 87 58 14 80 ad ab 10 80 b6 d5 1c 80 d3 08 18 80
       -1.868468e-39 -1.530954e-39 -2.648059e-39 -2.207217e-39
0002b0 e5 78 43 80 e1 4a 36 00 3c 2d 39 00 18 04 1d 00
       -6.196347e-39 4.985978e-39 5.25085e-39 2.664698e-39
0002c0 a1 76 0c 00 15 34 34 00 6d 97 06 80 7c 3b 1a 80
       1.144582e-39 4.79413e-39 -6.05334e-40 -2.409062e-39
0002d0 03 e5 09 00 49 37 00 00 17 11 1f 80 8c ae 43 00
       9.08673e-40 1.9833e-41 -2.853031e-39 6.215594e-39
0002e0 f2 ea 45 00 a6 6a 37 80 a1 ae 04 80 cf a1 2b 80
       6.420932e-39 -5.08921e-39 -4.29987e-40 -4.006972e-39
0002f0 28 c9 15 80 09 04 03 80 9b 8b 11 80 a6 73 1b 80
       -2.000707e-39 -2.76954e-40 -1.611284e-39 -2.521045e-39
000300 79 8f 1a 80 98 78 0d 80 ec c8 09 80 42 f4 1a 80
       -2.439191e-39 -1.237122e-39 -8.98597e-40 -2.475346e-39
000310 e3 c0 2e 80 ab 54 21 00 9f 32 1a 80 ea 4c 2e 00
       -4.293628e-39 3.060945e-39 -2.405882e-39 4.252024e-39
000320 88 aa 35 80 07 47 10 80 16 7b 17 80 b2 13 35 80
       -4.928456e-39 -1.494848e-39 -2.156371e-39 -4.874347e-39
000330 3f a3 38 80 c7 b4 1b 80 60 08 26 80 b7 da 1a 80
       -5.20135e-39 -2.544409e-39 -3.492753e-39 -2.466183e-39
000340 18 02 22 80 35 1a 2f 80 fb f8 2f 80 40 54 00 00
       -3.123158e-39 -4.32567e-39 -4.405586e-39 3.0223e-41
000350 c5 f3 32 80 14 47 3b 80 a3 4c 0a 80 aa 84 2c 00
       -4.679223e-39 -5.443792e-39 -9.45847e-40 4.088353e-39
000360 4d 09 18 80 9c 9f 11 80 66 84 17 80 fd 23 19 80
       -2.207388e-39 -1.61846e-39 -2.159712e-39 -2.308798e-39
000370 4f 83 10 80 d6 99 1e 80 5b fb 1e 80 33 63 15 00
       -1.516473e-39 -2.810251e-39 -2.845234e-39 1.964131e-39
000380 f0 b8 19 80 a0 6a 19 80 57 3d 15 80 e8 77 0d 00
       -2.36223e-39 -2.334137e-39 -1.95055e-39 1.236876e-39
000390 2b 5c 17 80 32 a5 16 80 12 3a 18 80 b3 6e 11 80
       -2.14528e-39 -2.079642e-39 -2.224884e-39 -1.600915e-39
0003a0 9b c5 0c 80 9e d7 12 80 75 33 1c 80 a7 e4 27 00
       -1.172913e-39 -1.730388e-39 -2.589853e-39 3.66361e-39
0003b0 c1 e6 04 00 4e 94 1a 80 81 ff 2c 00 59 bd 3c 80
       4.50121e-40 -2.440925e-39 4.13242e-39 -5.578055e-39
0003c0 b2 40 39 80 46 41 1e 80 11 33 1a 80 fe 6b 3e 80
       -5.257832e-39 -2.77848e-39 -2.406042e-39 -5.732541e-39
0003d0 f2 24 09 80 16 e3 14 80 bf 93 0b 00 4e 6b 20 80
       -8.39773e-40 -1.918173e-39 1.063192e-39 -2.97723e-39
0003e0 d2 fd 1b 80 9a ae 09 00 f4 63 0b 80 87 77 07 80
       -2.570612e-39 8.89155e-40 -1.046047e-39 -6.85727e-40
0003f0 db 6b 17 80 50 5d 1a 80 91 48 16 80 38 33 38 80
       -2.150908e-39 -2.421197e-39 -2.046413e-39 -5.161162e-39

edge_nn1.3.bias f4 [64]
000000 d2 f6 6c 39 03 f7 07 02 da 9e 92 01 70 3e 8c 80
       0.00022598662 9.989122e-38 5.385987e-38 -1.2879368e-38
000010 64 20 e7 81 0e d6 f1 37 40 e1 fc 80 a2 7b 5b 39
       -8.4902477e-38 2.8829116e-05 -2.322335e-38 0.00020931524
000020 b7 24 5c 82 38 5b d9 81 c4 4e 34 81 64 f8 f0 81
       -1.6173584e-37 -7.9844103e-38 -3.311729e-38 -8.85185e-38
000030 c4 97 8f 81 2a e7 3b 82 e0 54 9c 81 d0 2e 14 3a
       -5.2747677e-38 -1.3804931e-37 -5.742714e-38 0.00056527276
000040 80 6b 49 80 c8 e4 dd 01 02 7f bd 81 b6 f6 9c 81
       -6.742555e-39 8.1510864e-38 -6.960988e-38 -5.765936e-38
000050 ff a6 43 82 a4 ce fc 37 b3 b6 67 02 20 4a 0e 80
       -1.4374263e-37 3.0136966e-05 1.7023632e-37 -1.312288e-39
000060 f6 2b 2d 39 aa 03 f1 81 b1 62 a0 39 c6 11 f3 01
       0.00016514942 -8.8534676e-38 0.0003059111 8.9289606e-38
000070 f8 75 4a 02 4e 70 13 b9 9c cd 00 1a e3 03 b7 3a
       1.4874472e-37 -0.00014060849 2.663587e-23 0.001396295
000080 7e 56 56 02 90 03 4e 01 d4 58 d9 81 18 f3 b5 81
       1.5747059e-37 3.783878e-38 -7.984067e-38 -6.683772e-38
000090 9e 5a c4 01 8e e1 81 01 58 c1 4f 81 a6 44 17 82
       7.212906e-38 4.771077e-38 -3.8158613e-38 -1.1113429e-37
0000a0 a2 c9 01 82 52 3c 29 b9 aa d6 c3 2b 54 2f fd 81
       -9.535289e-38 -0.00016139567 1.3915165e-12 -9.3005435e-38
0000b0 02 e9 d6 81 0a 21 27 b9 1c 5c ae 01 dc 56 7b b8
       -7.8945535e-38 -0.00015938669 6.4049676e-38 -5.9923957e-05
0000c0 70 e0 65 01 0a 85 8e 82 b7 96 24 02 78 d6 4b 80
       4.2221683e-38 -2.0941385e-37 1.209207e-37 -6.964599e-39
0000d0 58 c4 68 81 be 03 1b 82 60 46 85 80 81 93 86 39
       -4.275254e-38 -1.1388675e-37 -1.2239367e-38 0.0002566837
0000e0 a7 ce dd 38 66 e0 a4 01 70 d6 fa 80 ba e9 c5 81
       0.00010576593 6.056608e-38 -2.30358e-38 -7.270175e-38
0000f0 91 8e 27 82 00 b2 84 35 d4 b3 61 ba f0 c3 7d 00
       -1.2310137e-37 9.886571e-07 -0.00086098653 1.1549726e-38

edge_nn1.4.weight f4 [64]
000000 07 9f bd 3e f4 97 20 00 a1 e5 1a 00 41 d3 1f 00
       0.3703539 2.993246e-39 2.470098e-39 2.922684e-39
000010 b7 8c 1e 00 e8 bd b2 3e 80 9f 0e 00 bd eb 25 3f
       2.805544e-39 0.34910512 1.342915e-39 0.64812833
000020 66 db 44 00 e1 87 07 00 ba f4 90 80 c4 79 06 00
       6.323519e-39 6.91593e-40 -1.3312103e-38 5.94694e-40
000030 5a 90 1f 00 79 97 09 80 2e d9 12 80 1c 90 8b 3e
       2.898684e-39 -8.80858e-40 -1.730948e-39 0.27258384
000040 4f ed 30 80 0b de 18 00 84 60 18 00 df d6 1a 00
       -4.493234e-39 2.283706e-39 2.238675e-39 2.464804e-39
000050 7e fe 45 80 8c aa a8 3e 81 8e 0b 80 a3 54 13 80
       -6.427944e-39 0.32942617 -1.061311e-39 -1.775236e-39
000060 c8 94 b9 3e c2 16 1a 00 34 11 2a 3f c7 96 18 00
       0.36246324 2.395887e-39 0.664325 2.25814e-39
000070 4d 0b 0d 80 77 eb 75 3e de b0 c5 3c cb 77 43 3f
       -1.197915e-39 0.24015604 0.024132188 0.76354665
000080 d4 92 19 00 96 53 05 80 f2 e4 2e 00 70 7c 17 00
       2.34856e-39 -4.89162e-40 4.306563e-39 2.156856e-39
000090 af fd 2f 80 4e 85 1e 00 70 e8 1a 00 a7 62 32 00
       -4.407273e-39 2.802886e-39 2.471106e-39 4.627165e-39
0000a0 51 5c 18 00 ee ce f8 3d a1 b3 3a 3b c7 96 1d 00
       2.237169e-39 0.12148844 0.0028488415 2.717318e-39
0000b0 e9 86 09 00 d6 4b 61 3f 5b 93 1d 00 66 3e 7b 3e
       8.74916e-40 0.8800634 2.71609e-39 0.24535522
0000c0 fd 61 17 80 7d 8e 0d 80 38 e9 35 00 c4 8c 15 00
       -2.147368e-39 -1.244977e-39 4.950944e-39 1.979043e-39
0000d0 a1 fd 10 80 13 50 2a 80 e5 2f 1f 00 65 53 c2 3e
       -1.560353e-39 -3.885816e-39 2.864082e-39 0.3795425
0000e0 e3 85 d7 3d 40 8e 14 80 37 12 1f 00 fa e4 18 00
       0.10523584 -1.88774e-39 2.853435e-39 2.286193e-39
0000f0 18 10 3b 00 9f 9a cf 3e 16 97 3f 3f 00 3a 07 80
       5.424068e-39 0.40547654 0.74839914 -6.63655e-40

edge_nn1.4.bias f4 [64]
000000 5d b2 c8 bd 9f 8d 18 80 2c 79 14 80 87 8d 09 80
       -0.09799645 -2.254856e-39 -1.880178e-39 -8.7729e-40
000010 66 a2 09 80 50 33 37 3d 5e 4f 1c 80 7c 7b 5e be
       -8.84777e-40 0.04472667 -2.599865e-39 -0.21726793
000020 81 fc 05 80 9e c7 12 80 62 d7 48 80 da 6e fb 83
       -5.49759e-40 -1.724648e-39 -6.68942e-39 -1.4777904e-36
000030 87 37 13 80 14 98 17 80 d1 c2 10 80 7b cc f5 3d
       -1.764794e-39 -2.166772e-39 -1.539255e-39 0.12001892
000040 4a 32 01 80 70 ff 11 80 0f 1e 0f 80 dd 9c 04 80
       -1.09876e-40 -1.652837e-39 -1.388315e-39 -4.23614e-40
000050 4e 3e 39 80 22 bf 12 be bb 9a 1f 80 8b 49 16 80
       -5.256974e-39 -0.14330724 -2.902407e-39 -2.046763e-39
000060 54 c4 0c 3c 8e 5e 0c 80 76 dd e1 3e d7 15 08 80
       0.00859173 -1.135946e-39 0.44114274 -7.42519e-40
000070 20 63 38 80 6e b1 85 3d bd cc fc bc 0d f5 51 bd
       -5.178347e-39 0.06527983 -0.030859346 -0.05125909
000080 4e 1a 04 80 26 fe 06 80 22 e0 04 03 e2 9c 15 80
       -3.76778e-40 -6.42184e-40 3.9048605e-37 -1.984824e-39
000090 62 9f 60 80 90 96 16 80 c5 4a 19 80 e8 ab 0e 80
       -8.873383e-39 -2.074393e-39 -2.32271e-39 -1.347365e-39
0000a0 e8 6e 0c 80 68 f4 53 bd e3 24 83 bd 11 af 0b 80
       -1.141812e-39 -0.051746756 -0.0640352 -1.072992e-39
0000b0 38 23 0e 80 44 ff b8 be 9c 6e 05 80 34 86 64 bd
       -1.298331e-39 -0.36132252 -4.98857e-40 -0.05579205
0000c0 6f 19 14 80 52 3d 0e 80 8b f6 0d 80 81 e6 0e 80
       -1.845834e-39 -1.307695e-39 -1.282304e-39 -1.368386e-39
0000d0 1a 8d 01 80 5c 11 0b 80 de 85 0e 80 d3 c9 38 bd
       -1.42453e-40 -1.016418e-39 -1.33372e-39 -0.04511435
0000e0 8f 03 5a be 2d 01 1b 80 77 ec 12 80 16 51 11 80
       -0.2129042 -2.47998e-39 -1.737867e-39 -1.590292e-39
0000f0 d4 d7 1c 80 6f 6f 4e bd 60 97 83 bd 2d 4f 33 80
       -2.648818e-39 -0.05039924 -0.06425357 -4.712013e-39

edge_nn1.4.running_mean f4 [64]
000000 1e 1b 94 be 0e 97 06 00 bc fd 9a 80 e1 8f e6 80
       -0.2892694 6.05201e-40 -1.4233689e-38 -2.1173778e-38
000010 80 1f da 80 79 cb 81 be b9 58 0f 00 c7 b4 44 be
       -2.0031438e-38 -0.2535055 1.40936e-39 -0.19209586
000020 39 44 02 80 29 33 9f 00 5c 87 a5 80 17 be 2a 80
       -2.08145e-40 1.4620197e-38 -1.5201415e-38 -3.925282e-39
000030 a0 f3 31 00 3a d5 59 00 b4 90 e0 00 7e 6a 49 be
       4.587335e-39 8.24985e-39 2.0623061e-38 -0.1966953
000040 a0 0b 94 80 bc fb 21 80 56 c3 b8 80 a8 b4 03 80
       -1.3595824e-38 -3.120877e-39 -1.6967805e-38 -3.40314e-40
000050 1c b5 84 00 af 54 11 be dd d7 0d 80 c7 75 06 00
       1.2187255e-38 -0.1419246 -1.271299e-39 5.93264e-40
000060 73 36 2c be 56 6f d3 80 57 7e 9a be f9 c0 32 00
       -0.16817646 -1.941723e-38 -0.30174515 4.661e-39
000070 74 a3 f2 80 75 b3 3c be 78 a4 2d bc fc ed c8 be
       -2.2282826e-38 -0.18427832 -0.010598294 -0.39244068
000080 a5 7b 04 81 22 3c 78 00 aa c6 f4 00 4c 76 ae 80
       -2.4333282e-38 1.1041831e-38 2.2479128e-38 -1.6021813e-38
000090 bf 3c 7b 80 81 c6 41 00 4c 4a 8d 80 c6 48 ec 00
       -1.1317558e-38 6.040517e-39 -1.2975458e-38 2.1699283e-38
0000a0 10 89 ea 80 d8 24 94 bd c8 58 b1 3b b2 c4 43 00
       -2.1538675e-38 -0.0723359 0.005412195 6.223539e-39
0000b0 50 b6 98 00 8d eb 88 be 19 63 03 81 09 c3 46 bd
       1.4024397e-38 -0.2674221 -2.4132e-38 -0.048525844
0000c0 db 87 85 80 a2 1e 12 80 ca 8e e2 80 bd 29 51 80
       -1.2262857e-38 -1.664028e-39 -2.0806045e-38 -7.453648e-39
0000d0 96 1b 5f 01 34 f5 3b 00 f6 f7 f4 80 02 26 a2 be
       4.0978423e-38 5.506257e-39 -2.2496813e-38 -0.31669623
0000e0 cd cf 99 3e 39 d4 fb 80 06 0e fc 80 51 69 64 80
       0.30041352 -2.312684e-38 -2.3147576e-38 -9.22133e-39
0000f0 ae 60 04 00 49 dd 8e be 58 ff 3e be 52 47 d8 00
       4.02024e-40 -0.27903202 -0.18652093 1.9862052e-38

edge_nn1.4.running_var f4 [64]
000000 bc e0 98 3d 04 00 00 00 04 00 00 00 04 00 00 00
       0.0746474 6e-45 6e-45 6e-45
000010 04 00 00 00 51 02 fc 3e 04 00 00 00 19 00 bc 3d
       6e-45 0.49220517 6e-45 0.09179706
000020 04 00 00 00 04 00 00 00 04 00 00 00 04 00 00 00
       6e-45 6e-45 6e-45 6e-45
000030 04 00 00 00 04 00 00 00 04 00 00 00 6d a3 dc 3d
       6e-45 6e-45 6e-45 0.107733585
000040 04 00 00 00 04 00 00 00 04 00 00 00 04 00 00 00
       6e-45 6e-45 6e-45 6e-45
000050 04 00 00 00 df 9f 0c 3d 04 00 00 00 04 00 00 00
       6e-45 0.034332152 6e-45 6e-45
000060 5b 8f 9e 3e 04 00 00 00 90 10 28 3e 04 00 00 00
       0.30968747 6e-45 0.16412568 6e-45
000070 04 00 00 00 c5 3c 7f 3e 40 b1 20 3a 93 5e a9 3e
       6e-45 0.24925525 0.0006129928 0.33079967
000080 04 00 00 00 04 00 00 00 04 00 00 00 04 00 00 00
       6e-45 6e-45 6e-45 6e-45
000090 04 00 00 00 04 00 00 00 04 00 00 00 04 00 00 00
       6e-45 6e-45 6e-45 6e-45
0000a0 04 00 00 00 6c d6 84 3c a0 b5 59 39 04 00 00 00
       6e-45 0.016215526 0.00020762393 6e-45
0000b0 04 00 00 00 1b c8 7d 3e 04 00 00 00 1a aa 19 3d
       6e-45 0.24783365 6e-45 0.037515737
0000c0 04 00 00 00 04 00 00 00 04 00 00 00 04 00 00 00
       6e-45 6e-45 6e-45 6e-45
0000d0 04 00 00 00 04 00 00 00 04 00 00 00 9c a2 d8 3d
       6e-45 6e-45 6e-45 0.1057789
0000e0 ce d7 5b 3e 04 00 00 00 04 00 00 00 04 00 00 00
       0.21469042 6e-45 6e-45 6e-45
0000f0 04 00 00 00 55 da 29 3e 35 10 c1 3d 04 00 00 00
       6e-45 0.16587193 0.09426919 6e-45

conv1.nn.0.weight f4 [64, 8]
000000 f6 b8 02 3e fd 5a 34 3c 0f 1e 8e 3c 97 5a 34 bd
       0.1276587 0.011008021 0.017348317 -0.044031706
000010 02 82 84 3d 4e b5 f2 bb c0 c8 b8 3a a2 3f a3 be
       0.064701095 -0.007406867 0.0014097914 -0.31884485
000020 9f b3 f9 bd bd 9f 83 3c d6 d6 a6 bc 1d ca 84 3c
       -0.12192463 0.01606738 -0.020366114 0.016209656
000030 cd 08 bc bd c1 34 27 3b 8c 7a 19 3b b0 76 38 be
       -0.09181366 0.0025513622 0.002341899 -0.18014026
000040 c2 2c 4a 80 e6 a4 02 80 07 00 33 00 c9 41 2d 80
       -6.811883e-39 -2.42825e-40 4.68362e-39 -4.156197e-39
000050 d1 53 0c 80 b0 9d 27 80 62 0f 41 02 bc 25 45 00
       -1.132094e-39 -3.638152e-39 1.4183815e-37 6.350186e-39
000060 fc 41 09 00 4c e7 4c 81 11 c3 1c 80 e8 10 07 80
       8.5019e-40 -3.763483e-38 -2.64137e-39 -6.48913e-40
000070 df ed 11 00 78 88 26 00 d0 c9 67 81 7c b0 2d 80
       1.646536e-39 3.538705e-39 -4.2572793e-38 -4.195908e-39
000080 35 6b 13 00 20 df 60 01 16 34 0a 82 d1 3e 14 80
       1.783333e-39 4.1302387e-38 -1.0153587e-37 -1.859244e-39
000090 12 7f 03 00 d8 4c 02 00 8c 02 0a 81 6f 7c 10 00
       3.21091e-40 2.11237e-40 -2.5348424e-38 1.514006e-39
0000a0 e0 11 23 80 02 8b 16 02 14 04 48 80 4f 68 20 00
       -3.220655e-39 1.1060153e-37 -6.613619e-39 2.976155e-39
0000b0 00 f4 0c 00 c0 1f ec 01 84 39 bb 81 9f 48 18 80
       1.189557e-39 8.673827e-38 -6.877548e-38 -2.230103e-39
0000c0 39 93 51 bc 73 8e b7 bc 67 70 a6 bc 12 a1 01 3e
       -0.012791448 -0.022406792 -0.02031727 0.126591
0000d0 a1 f2 a3 bc 6f ff 37 bb af bd 4a bc 15 0d 3e 3e
       -0.020013155 -0.0028075834 -0.012374326 0.18559678
0000e0 f9 02 73 bc 19 68 8f bc 4d 86 23 bd b2 84 28 3e
       -0.014832252 -0.017505692 -0.039923 0.16456869
0000f0 03 0c 4c be 23 8f ef 3b 07 73 a3 bb 76 b1 ab 3c
       -0.19926457 0.0073107644 -0.0049880776 0.020958643
000100 59 eb 12 be 2a e7 3f bc 7d 38 58 3d 42 18 4b be
       -0.1434759 -0.011712829 0.052788246 -0.19833472
000110 34 e4 98 3d b9 92 7a 3a bb e3 c0 bb 08 53 5a be
       0.07465401 0.00095586065 -0.0058865226 -0.21320736
000120 2a 10 a7 be ed 12 94 ba d9 1d 84 bc 34 73 3d be
       -0.3262952 -0.0011297144 -0.016127514 -0.18500978
000130 4a 68 16 be 13 57 d8 bb f6 86 21 3b d3 af 40 be
       -0.1468822 -0.006602177 0.0024647093 -0.18817072
000140 c0 ec 86 3c 93 9a a7 bc dc 3b 93 3a 5f 72 58 3d
       0.016470313 -0.020459449 0.001123305 0.052843448
000150 3e 85 5d 3d 34 9d f9 ba 00 42 df bb 2b 98 48 be
       0.054082148 -0.0019044043 -0.0068132877 -0.19589297
000160 55 73 54 3d 16 04 cc bc 17 65 a9 bc f9 06 1a 3e
       0.0518678 -0.024904292 -0.020678086 0.15041722
000170 66 97 81 3d 4d 47 dc 3a c6 72 b1 ba 11 18 10 3e
       0.06327705 0.0016805917 -0.0013538233 0.1407168
000180 8f 33 16 80 c1 49 35 80 30 27 05 80 19 38 3c 00
       -2.038877e-39 -4.893739e-39 -4.73235e-40 5.530254e-39
000190 a7 3c 1f 00 e7 e3 16 80 03 97 0e 80 1d df 18 80
       2.868658e-39 -2.102137e-39 -1.33987e-39 -2.28409e-39
0001a0 df d1 98 bd 5c 21 18 3c c4 d6 a0 b9 d2 8e 7c bc
       -0.07461905 0.009285297 -0.0003067759 -0.01541491
0001b0 97 c2 a6 bd 32 94 d3 bb eb 4e b8 3b 34 d1 41 be
       -0.08142584 -0.0064568752 0.005624642 -0.18927461
0001c0 f4 b9 a2 3d 19 d1 46 3b 82 39 7b ba b2 96 8d 3c
       0.07945624 0.0030337034 -0.00095834595 0.017283771
0001d0 51 51 8c 3c 4d 86 13 bb 52 4c 44 3b c7 a1 00 be
       0.017128618 -0.002251047 0.0029952717 -0.12561713
0001e0 b6 ac b3 3d 18 6f 91 bc 9b 19 c9 bb cd 5f 88 3d
       0.08773176 -0.017753169 -0.0061370856 0.066588975
0001f0 48 5b ad 3d 11 2b cd bb 80 2d 61 bc 45 6e 66 be
       0.08464676 -0.0062612374 -0.013743758 -0.22503002
000200 73 14 03 80 a2 97 42 80 ad 68 1f 00 8a 78 23 80
       -2.82842e-40 -6.115538e-39 2.884451e-39 -3.257484e-39
000210 b5 51 43 80 a0 8c 12 80 12 7c 89 81 08 07 0a 80
       -6.182289e-39 -1.703486e-39 -5.0503884e-38 -9.20877e-40
000220 70 c5 19 80 ae a8 36 00 52 4c 04 80 42 9d 4e 00
       -2.366715e-39 5.019628e-39 -3.9472e-40 7.219582e-39
000230 00 dc 28 80 9b c8 03 00 a1 e4 1b 00 31 f7 13 80
       -3.752341e-39 3.4747e-40 2.561575e-39 -1.83355e-39
000240 74 d0 0f 80 5a ab 03 80 b9 b7 05 80 93 31 0f 80
       -1.452311e-39 -3.36976e-40 -5.25085e-40 -1.395316e-39
000250 f9 27 39 80 91 77 0a 00 5b 32 15 80 1f 2a 3c 80
       -5.248963e-39 9.61247e-40 -1.94661e-39 -5.52524e-39
000260 26 7f 3a 80 62 22 22 80 03 42 06 00 6d 29 6a 00
       -5.372071e-39 -3.134741e-39 5.74694e-40 9.749423e-39
000270 49 ca 79 00 18 1b 14 80 0a 64 74 00 8f bb 8d 80
       1.1184661e-38 -1.84643e-39 1.0688805e-38 -1.3016088e-38
000280 6f 77 27 b7 55 af bc b6 a8 43 b1 36 01 50 e0 ba
       -9.9817835e-06 -5.623248e-06 5.2828873e-06 -0.0017113687
000290 53 77 de b7 5c 73 46 b5 28 0f f4 b5 80 8d 0f 3a
       -2.6520027e-05 -7.392862e-07 -1.8183828e-06 0.0005476102
0002a0 9e 6c 41 3e 7f fc ca 3b 41 14 08 bc c0 e9 72 3e
       0.1888909 0.0061946507 -0.00830561 0.23721981
0002b0 75 63 b1 3d c2 73 93 3b b7 36 05 3b 51 02 83 3e
       0.08661548 0.0044998834 0.0020326802 0.25587705
0002c0 0a bb 14 bc a8 ea 67 bc a2 ff 65 bb 4f 07 b2 3d
       -0.009077797 -0.0141550675 -0.0035094996 0.086928
0002d0 25 a2 62 3d ad a6 67 ba ef cd ef ba f0 78 58 bd
       0.055330414 -0.00088367873 -0.0018295626 -0.05284971
0002e0 5d 58 33 00 0f e1 45 00 c7 b4 98 00 5c ad b9 0c
       4.715309e-39 6.417385e-39 1.4023846e-38 2.86081e-31
0002f0 99 5a 1b 00 ee b1 50 00 70 ab 1d 80 3f 0c 31 27
       2.512059e-39 7.410669e-39 -2.72473e-39 2.4570323e-15
000300 41 9d 4b 3b 78 43 9e 3c c5 ea c4 3a 30 a3 cd 3d
       0.0031069072 0.019319281 0.001502358 0.10040891
000310 bf fe c1 3c c5 6a 0e 3c 49 3c 2d bc 5a c4 a1 3e
       0.023681043 0.008692448 -0.010573455 0.31595117
000320 5b 9e 29 00 de 6e 23 00 b7 10 07 80 1d 21 3a 80
       3.822063e-39 3.254014e-39 -6.48845e-40 -5.338338e-39
000330 35 f8 08 00 5c a5 1c 01 ce 65 22 82 12 59 40 00
       8.23724e-40 2.8771314e-38 -1.1931097e-37 5.909424e-39
000340 5c 59 ad 3c 71 75 6a bc c8 70 65 3c d4 db 15 bd
       0.021160774 -0.014310227 0.01400394 -0.036586598
000350 c4 25 94 3d dc 18 f8 ba 24 8e 55 b9 ef 08 3f be
       0.07233766 -0.0018928307 -0.00020366214 -0.18655752
000360 a9 3c 4d 00 e0 e9 cc 01 fa 25 8d 01 db ef 53 80
       7.093094e-39 7.527336e-38 5.1849714e-38 -7.70839e-39
000370 c6 07 09 80 38 ef 93 80 e0 69 27 80 03 b5 7a 00
       -8.29308e-40 -1.3585633e-38 -3.619565e-39 1.1268865e-38
000380 f4 35 19 00 a2 3e de 01 44 ac 2d 00 75 d4 28 00
       2.315242e-39 8.1639794e-38 4.194395e-39 3.749635e-39
000390 08 92 02 00 a9 09 0e 02 55 10 17 02 8b e4 1f 00
       2.36057e-40 1.0435285e-37 1.1098415e-37 2.928886e-39
0003a0 2c c6 bb 3d 39 db 4e bc 1c 85 69 3c 5b be 83 be
       0.09168658 -0.012625509 0.014252927 -0.25731167
0003b0 87 bc 5a be b3 cc 99 3b 88 56 7c bb 04 c3 35 39
       -0.2136098 0.0046935915 -0.0038503725 0.00017334154
0003c0 b2 b2 67 bd 73 59 8c 3b d2 26 7b bc f5 b3 d0 3d
       -0.0565669 0.004283124 -0.01532908 0.10190574
0003d0 2b 2f 2a bd d8 88 a1 3c f4 34 1c bb b5 20 a8 3e
       -0.04154889 0.019718572 -0.0023835273 0.32837453
0003e0 4c e7 61 22 f0 ec 7d a2 9c c7 8e 22 d9 7e 15 b9
       3.0615634e-18 -3.4413327e-18 3.870052e-18 -0.00014257002
0003f0 32 c1 d4 25 b0 91 10 a1 b0 ca 34 a1 ca 51 30 37
       3.6907052e-16 -4.8981914e-19 -6.1254627e-19 1.05094605e-05

conv1.nn.0.bias f4 [64]
000000 27 eb 41 b8 70 55 ef 36 6a 36 3c 02 4a 94 8d 01
       -4.623379e-05 7.1327013e-06 1.3827675e-37 5.2008004e-38
000010 1e 8d b8 01 d8 cb b2 00 12 5e 1c 37 7b 36 09 39
       6.779342e-38 1.6419844e-38 9.320227e-06 0.00013085634
000020 8a ed 9f b7 9d b2 24 ba 05 63 97 39 ac 7e 72 b7
       -1.906489e-05 -0.0006282719 0.0002887474 -1.4453817e-05
000030 87 43 0c 82 d4 5f 91 38 1b 9e 98 37 a0 c0 6d 39
       -1.0304955e-37 6.931988e-05 1.8193436e-05 0.0002267384
000040 65 17 3c 82 6c 06 5a 81 1a 9b e7 81 c8 f4 49 81
       -1.3818773e-37 -4.0044884e-38 -8.507856e-38 -3.709349e-38
000050 7c 88 b2 ac 96 de a3 37 ac 51 13 b7 94 78 51 01
       -5.074217e-12 1.9534764e-05 -8.7808985e-06 3.8473748e-38
000060 dc 8a 9a 37 4e e5 8e 01 8e 30 28 b6 b5 2a 8d 02
       1.8422892e-05 5.24916e-38 -2.5062213e-06 2.07426e-37
000070 be 73 99 01 16 47 85 b8 bc 2c f8 38 df 00 ba 18
       5.6369406e-38 -6.355175e-05 0.00011833894 4.8080753e-24
000080 b9 32 b5 36 ec 4f df b8 a0 98 4c 32 26 e4 10 39
       5.4001252e-06 -0.00010648355 1.1909066e-08 0.00013817902
000090 75 1c 95 39 c0 a0 47 b5 a5 04 8a 2d fa a1 d2 81
       0.00028440697 -7.43672e-07 1.5690846e-11 -7.737424e-38
0000a0 e8 1c 9b 36 3e 80 fd 81 56 c6 20 b8 a4 24 13 b8
       4.622725e-06 -9.312154e-38 -3.8331687e-05 -3.5081655e-05
0000b0 f3 7d 40 82 01 1e bb 38 d4 a9 57 36 32 4c ef 81
       -1.4142078e-37 8.9224435e-05 3.213635e-06 -8.790407e-38
0000c0 dd b7 6f 82 88 da e6 37 21 d0 60 38 65 91 7c 39
       -1.7611713e-37 2.7519898e-05 5.3599597e-05 0.00024086756
0000d0 78 db c5 b8 53 b0 3b 02 d4 1a 14 b6 10 b1 33 81
       -9.434571e-05 1.3789193e-37 -2.2069335e-06 -3.3004144e-38
0000e0 be b3 0c b9 28 4f bf 33 5b 49 20 82 80 af 65 82
       -0.000134184 8.908529e-08 -1.1775995e-37 -1.6874629e-37
0000f0 7e cc a2 81 92 6c 17 b3 f2 fb ed 01 6e 7b 1c 3a
       -5.9802833e-38 -3.525617e-08 8.7421574e-38 0.000596932

conv1.nn.1.weight f4 [64]
000000 f2 8b 20 3f c5 39 e8 3e f2 84 16 80 17 97 1a 80
       0.6271354 0.45356575 -2.068073e-39 -2.441924e-39
000010 e5 2a 12 80 64 c5 11 00 d9 e4 0e 3e b3 64 a6 3e
       -1.668427e-39 1.632014e-39 0.13954486 0.32498702
000020 68 29 c7 3e bd 2a c2 3e fb c7 a6 3e cb 90 3e 3e
       0.38898778 0.37923232 0.32574448 0.18609922
000030 9c 0d 06 00 5c 93 8a 3e fe bf 6e 3e c0 e4 fc 3e
       5.55895e-40 0.2706555 0.23315427 0.49393272
000040 99 e0 0d 80 b4 c8 35 00 82 30 81 80 48 8c 1c 80
       -1.274432e-39 4.93928e-39 -1.186418e-38 -2.621717e-39
000050 68 9a 6d 3b b7 0f f3 3e ce 90 62 3d af 70 38 2e
       0.0036255363 0.47472927 0.055313878 4.193684e-11
000060 08 b4 1d 3f 8c 80 0d 80 af f8 8f 3e 6f d2 29 80
       0.6160283 -1.239975e-39 0.28119418 -3.840745e-39
000070 d9 67 19 80 f2 ff d1 3e 8b 02 22 3f 67 e8 13 b9
       -2.333141e-39 0.41015583 0.6328513 -0.00014105589
000080 f9 6d 81 3e ec ec 34 3f f5 3a a1 3d 5f ef ad 3e
       0.25279215 0.70674014 0.07872573 0.33971688
000090 95 4b 1e 3f 3f c5 da 3e f9 4b b2 3b c0 d9 09 80
       0.6183408 0.42728612 0.0054411856 -9.04633e-40
0000a0 7e c1 09 3f 93 ee 23 00 12 44 2b 3e 9a ab a4 3e
       0.5381087 3.299827e-39 0.16725186 0.32162172
0000b0 5d e5 17 80 76 44 a0 3e 62 de bf 3e 40 65 24 80
       -2.194496e-39 0.31302232 0.37474352 -3.3424e-39
0000c0 fa 3b 23 00 af e2 f2 3e 53 78 32 3f ad 5e d7 3e
       3.235758e-39 0.4743857 0.6971485 0.4206442
0000d0 37 25 b8 3e f5 8b 56 00 93 d6 cb 3e cb f7 1e 00
       0.35965893 7.94806e-39 0.39812145 2.843956e-39
0000e0 cb 68 ef 3e 8a 12 81 3a 38 34 58 00 61 02 06 80
       0.46759638 0.0009847444 8.100256e-39 -5.51866e-40
0000f0 71 8a 97 33 cc a2 e6 3d 66 e9 16 00 42 f7 82 3f
       7.056668e-08 0.1126152 2.104108e-39 1.0231707

conv1.nn.1.bias f4 [64]
000000 8f 59 a6 bd 0d cf 55 bb 94 fe 02 80 e1 4e 22 80
       -0.08122551 -0.0032624633 -2.74996e-40 -3.150703e-39
000010 2d 1c 2b 80 47 00 43 80 86 7a 5e 3c 04 bc 88 3b
       -3.959034e-39 -6.153078e-39 0.013579017 0.004172804
000020 57 b7 51 bc 77 bb 7f 3d 07 9d 4f 3b 4c 29 73 bd
       -0.012800059 0.06243464 0.003167929 -0.059365556
000030 67 a9 12 80 0d 48 91 3d f9 f5 f1 bc 40 65 d3 3a
       -1.713809e-39 0.07093821 -0.029536234 0.0016128197
000040 52 7e 35 80 e4 e1 31 80 7f f4 44 80 1b 22 33 80
       -4.912596e-39 -4.580974e-39 -6.332522e-39 -4.695845e-39
000050 fa 00 90 bc 9f 2d 8d bd cf d9 bf b9 b7 15 f4 b0
       -0.01757859 -0.06893467 -0.0003659264 -1.7759508e-09
000060 f8 63 f6 bd de cf 02 80 a9 69 84 bd 08 8b 57 80
       -0.12030786 -2.5824e-40 -0.064654656 -8.039563e-39
000070 2e 06 60 80 e6 e4 79 bd 60 1e 4c 3d 8f ef 4d ba
       -8.818424e-39 -0.06100931 0.049833655 -0.00078558264
000080 2e ec 6e bd 28 05 28 bc 38 39 f2 bb 02 fd 94 3d
       -0.058330707 -0.010255136 -0.007392075 0.0727482
000090 f1 b5 8a 3d a8 8a 01 3d 55 cb b0 bc 37 01 0b 80
       0.06772984 0.031626374 -0.021581331 -1.010626e-39
0000a0 9b e4 0f be 1f 80 38 80 8b c1 85 3c 70 c4 b1 bd
       -0.1405205 -5.188749e-39 0.01632764 -0.086800456
0000b0 c8 96 03 80 67 5c 9b 3d 91 db 5a bd d3 36 30 80
       -3.29597e-40 0.07585984 -0.05343205 -4.427771e-39
0000c0 1a 16 25 80 2d 45 dd bd 9d 0a f8 3d 80 18 6e 3d
       -3.405842e-39 -0.1080421 0.12111399 0.058128834
0000d0 73 0b 85 bb 86 3c 0b 80 d6 08 de bc 04 3c 2f 80
       -0.0040602027 -1.031902e-39 -0.027103823 -4.337798e-39
0000e0 ed 9b 33 3d b6 3b 94 3c aa a9 5c 80 92 d9 21 80
       0.043849874 0.018094879 -8.50973e-39 -3.108621e-39
0000f0 b6 05 8c ae 47 91 4e bd 3b c3 12 80 87 c7 0d 3d
       -6.3674774e-11 -0.050431516 -1.723074e-39 0.034614112

conv1.nn.1.running_mean f4 [64]
000000 1a 7d 38 3f ec 50 87 bf cb eb 11 82 bc 7c 00 81
       0.7206589 -1.057157 -1.0720587e-37 -2.359938e-38
000010 8c 1e 82 80 46 53 1d 00 80 92 d3 3f f0 61 08 40
       -1.1949573e-38 2.693102e-39 1.6529083 2.1309776
000020 c8 94 86 c0 04 57 c2 c0 20 68 71 3f 82 7b 2b 40
       -4.205662 -6.073122 0.9429951 2.6794133
000030 e6 b8 9c 01 ae cd 7c bf d4 96 87 3f 3b 4b ed 3f
       5.7570666e-38 -0.9875134 1.0592904 1.8538584
000040 c0 38 cc 80 69 04 da 01 9e cd 83 81 b8 2f 01 02
       -1.8754799e-38 8.008688e-38 -4.8416846e-38 9.491118e-38
000050 c3 b2 ce bc ed 81 ab 40 30 9a 94 3f b4 84 87 1c
       -0.025231725 5.35961 1.1609554 8.967854e-22
000060 82 08 c1 3f 33 ca 8d 81 f0 a2 88 be c7 21 19 00
       1.5080721 -5.208536e-38 -0.2668681 2.308004e-39
000070 23 e7 0d 02 d1 de 30 c0 e4 3f 5b 3f 59 02 0d bb
       1.0425377e-37 -2.7635996 0.85644364 -0.0021516292
000080 ac 2f df 3e 5d 7d 82 bf b6 d5 f5 3e 00 ba 16 3f
       0.43591058 -1.0194508 0.4801461 0.58877563
000090 43 6f e4 c0 1c c9 01 41 ab 2d 4b 3e 1e 10 2a 02
       -7.1385818 8.111599 0.1984164 1.2494253e-37
0000a0 e9 b3 9a 40 c7 2c 2d 02 72 16 3d 3f c6 e0 2d c0
       4.8344617 1.2722883e-37 0.73862374 -2.716844
0000b0 8f 27 67 01 7c 48 6b bf c2 21 91 40 b7 7b 97 01
       4.245638e-38 -0.9190748 4.535371 5.564616e-38
0000c0 35 c9 02 82 d4 43 64 3f bd b7 c7 3f 6a 89 44 bf
       -9.608635e-38 0.89166 1.5602947 -0.7677218
0000d0 59 1f 10 40 c4 e2 0d 02 9e 78 72 40 22 20 3c 80
       2.2519133 1.0424123e-37 3.788612 -5.521657e-39
0000e0 b4 64 5c 3f 6b 4d e2 3d 1a b0 48 01 0e 82 d4 01
       0.8609116 0.110499226 3.6860545e-38 7.806312e-38
0000f0 37 d3 96 2d 6e 39 f4 3e 0f e8 33 80 28 a6 bb c1
       1.7146824e-11 0.47700065 -4.766857e-39 -23.456131

conv1.nn.1.running_var f4 [64]
000000 06 d1 55 47 84 15 af 46 04 00 00 00 04 00 00 00
       54737.023 22410.758 6e-45 6e-45
000010 04 00 00 00 04 00 00 00 bd 00 36 46 08 94 cd 45
       6e-45 6e-45 11648.185 6578.504
000020 cf 98 5a 46 7e 96 2a 46 a0 a8 f0 46 e9 1e ba 45
       13990.202 10917.623 30804.312 5955.864
000030 04 00 00 00 d1 c2 a0 46 60 fe 2d 46 0c 9a 23 47
       6e-45 20577.408 11135.594 41882.047
000040 04 00 00 00 04 00 00 00 04 00 00 00 04 00 00 00
       6e-45 6e-45 6e-45 6e-45
000050 0e 2c e2 3f 04 1f 9d 46 6b 86 d6 45 17 14 da 18
       1.7669694 20111.508 6864.8022 5.6371965e-24
000060 ff be 30 47 04 00 00 00 1e ab 8a 46 04 00 00 00
       45246.996 6e-45 17749.559 6e-45
000070 04 00 00 00 82 2c a0 46 72 e4 40 47 3b 19 01 3c
       6e-45 20502.254 49380.445 0.007879551
000080 06 08 83 46 36 51 9b 47 bb 47 64 45 2c 12 66 46
       16772.012 79522.42 3652.4832 14724.543
000090 3e dc 1b 46 5c 2b 00 45 2d 21 cc 44 04 00 00 00
       9975.061 2050.71 1633.0367 6e-45
0000a0 5b 0b 9f 46 04 00 00 00 37 25 f9 45 38 3c 31 46
       20357.678 6e-45 7972.652 11343.055
0000b0 04 00 00 00 c2 08 b6 46 11 46 bd 45 04 00 00 00
       6e-45 23300.379 6056.7583 6e-45
0000c0 04 00 00 00 c5 4f 0c 47 5c 95 02 45 41 fc b4 44
       6e-45 35919.77 2089.335 1447.8829
0000d0 dc 93 78 46 04 00 00 00 b8 61 82 45 04 00 00 00
       15908.965 6e-45 4172.215 6e-45
0000e0 60 66 19 47 93 3c 50 43 04 00 00 00 04 00 00 00
       39270.375 208.23662 6e-45 6e-45
0000f0 42 5c 03 21 d8 b8 91 45 04 00 00 00 6e 18 35 45
       4.450663e-19 4663.1055 6e-45 2897.5269
